models/final_model.pth (torch, 226962 bytes, 20 tensors)

net.0.weight f4 [256, 44]
000000 a5 f8 0e 3b ca 55 d5 3d a8 6c 74 bd 91 c8 ab 3d
       0.0021815684 0.104167536 -0.059673935 0.083878644
000010 83 a4 b6 bd 4e 23 02 be 57 bc 00 3e c4 0c e3 bc
       -0.08918097 -0.1270878 0.12571846 -0.027716048
000020 f8 b6 c5 bd a6 9b 72 bd 18 eb 8f 3d 20 97 93 3d
       -0.09654039 -0.05923047 0.070272624 0.07206559
000030 67 b0 1a bc 07 98 a8 bc f6 79 d4 bd ca bc 8b 3d
       -0.009441472 -0.020580305 -0.10374825 0.06823118
000040 b6 08 fe 3d 5c 63 73 3d f5 a4 e7 bd c1 81 8b bc
       0.12404005 0.05942093 -0.1131076 -0.017029645
000050 50 aa f7 bd e0 d1 aa 3b 2b 38 9e 3c f8 ba ab 3d
       -0.120930314 0.0052130073 0.019313892 0.08385271
000060 6c cf ca 3d 1b b6 5e bd 36 2b 29 bd f3 17 36 bd
       0.09902844 -0.054372888 -0.041300975 -0.044456434
000070 de 52 1d bb b1 71 c5 bd 1e 01 13 3e 12 5e 24 be
       -0.0024005692 -0.096408255 0.14355895 -0.1605151
000080 00 ea 9c 3d 03 8e cf 3d ee 43 eb bc c1 3d ec bd
       0.076618195 0.101345085 -0.028718915 -0.11535216
000090 f3 df c5 bd 1b f6 00 3e 23 3b b0 bc 1e 3b 36 be
       -0.096618555 0.12593882 -0.021512574 -0.17795989
0000a0 a7 ef 9d bd f7 9f 18 3c 59 fc 06 3e 13 53 0d be
       -0.07711726 0.009315482 0.131822 -0.13801222
0000b0 e3 f6 10 be 1d 99 81 3d e9 2b 2c be d3 8d 41 3c
       -0.1415668 0.06328032 -0.16813625 0.011813599
0000c0 f2 0e 9a 3c 9d ac df 3b ac 7e d5 bd e0 e5 69 3d
       0.018805955 0.006825997 -0.10424551 0.05710399
0000d0 73 dd a8 3d 43 81 b6 3d e7 66 06 3e a0 f3 1a be
       0.08245363 0.089113735 0.13125192 -0.15131998
0000e0 52 2b 6a 3d 11 80 02 3e ee af d6 bd bb ad 3d bc
       0.05717022 0.12744166 -0.10482775 -0.011577065
0000f0 8f 08 51 bd e3 b7 94 bb 8b 38 52 3d b5 83 57 bd
       -0.051033553 -0.0045385226 0.051323455 -0.05261584
000100 a8 26 b5 3c d0 34 d0 3d 38 2d 3f 3c 25 e3 c4 3d
       0.02211316 0.10166323 0.011668496 0.09613637
000110 3a d2 a0 3d eb 10 18 be 80 84 cb bd 5b 7d f3 3c
       0.078525975 -0.14850204 -0.09937382 0.02972286
000120 c7 c3 6a 3d 72 47 d6 3d 2c 59 ff 3d 60 db 80 3d
       0.057315614 0.10462846 0.1246818 0.062918425
000130 43 5a 06 3e 10 65 84 b8 3d 97 f7 3d 2c 3d 22 bd
       0.1312037 -6.313075e-05 0.12089393 -0.03960912
000140 c3 32 5b 3c 23 bf ef bd 10 10 77 bb 24 80 ef 3d
       0.013378802 -0.11706378 -0.0037698783 0.11694363
000150 3c ab a2 bd 0c 55 de 3d 6d a1 fc bd b2 e8 4f bc
       -0.079428166 0.10856065 -0.12335477 -0.012689756
000160 42 05 42 3d b6 e1 a9 3d ae 9b cc bc 16 71 72 3d
       0.047368295 0.08295004 -0.024976578 0.05918988
000170 26 94 92 3d 05 52 0a 3e 00 9e ff 3d 2c 09 a0 3d
       0.07157163 0.1350785 0.12481308 0.078142494
000180 e7 9c 5e bd 28 64 69 3d 87 e4 80 3d b8 c0 e9 bc
       -0.054348852 0.056980282 0.06293588 -0.028534278
000190 67 71 ad 3d 2b 85 c5 3d af 18 0b bd fc a5 ca bd
       0.084688954 0.096445404 -0.033959087 -0.0989494
0001a0 fa cb cc 3d 1e b0 86 3c fb e5 fb 3d 72 ac 1f 3e
       0.09999843 0.016441401 0.12299725 0.15593126
0001b0 ad 52 02 3d a4 d4 c0 bd 90 be e7 3d aa 8c 12 be
       0.031817127 -0.09415558 0.11315644 -0.14311472
0001c0 2c a1 14 3e 28 20 1d 3e d9 e4 91 3c 4f 54 62 3d
       0.14514607 0.15344298 0.017809318 0.055256184
0001d0 0d 2a b8 3d f4 de 06 3e d7 93 1b be d3 b8 be 3d
       0.089923956 0.13170987 -0.15193115 0.09312596
0001e0 1b 49 85 bc 82 d3 98 bd 19 07 3b 3d e6 f9 29 bd
       -0.016270211 -0.07462217 0.045661066 -0.041498087
0001f0 45 3c af bd 5d 21 47 3d 57 12 0c 3d 35 a0 5c 3d
       -0.085564174 0.048615802 0.034197178 0.053863723
000200 b7 4c 0d 3e c3 9a d3 3d 70 8e 00 bd 3f 23 22 3d
       0.13798796 0.10332253 -0.03138584 0.039584395
000210 6a 14 06 bd 5c 88 c3 3d 0f a7 c7 3d b6 6a 95 bd
       -0.032734312 0.09547493 0.09748661 -0.07295744
000220 cf 8c bd 3c 41 12 e8 bc 7e 2b 86 bc 3d 08 e4 bc
       0.023138432 -0.028329017 -0.01637816 -0.02783596
000230 94 67 98 bd ea 73 f4 bd d7 e4 8e ba 22 ab 1a 3e
       -0.07441631 -0.11936171 -0.001090194 0.15104344
000240 ac e5 68 3b 9f 5c 4a 3d b4 a3 be bc 08 44 b3 bc
       0.0035537286 0.049404737 -0.02327142 -0.021883026
000250 3a 0f 60 bd 91 65 86 b9 60 8d 5d bb ae 15 9f 3d
       -0.05470202 -0.00025634145 -0.003380619 0.07767807
000260 d1 67 10 3e ac 70 48 3d 53 10 23 bd 4d cc 84 3d
       0.14102103 0.048935577 -0.03981049 0.0648428
000270 b1 1b b4 3d 05 59 6f bd f8 a6 bb bc 9d 4d 63 bd
       0.08794344 -0.058434505 -0.022906765 -0.05549394
000280 e2 57 13 3c f6 34 bc 3c 76 5a b7 3d 5a aa df 3d
       0.008993121 0.022974472 0.08952801 0.10921164
000290 b2 3f d2 bc 93 2a 81 3d 77 3f 10 be 9a e3 43 bd
       -0.025665138 0.063069485 -0.1408671 -0.04782448
0002a0 1f 5f 73 bd 71 52 10 3e 85 e3 d9 3d b8 32 2d be
       -0.059416886 0.14093949 0.10639099 -0.16913879
0002b0 00 bf 73 bd e4 9d 73 bc 1d f8 2e 3d a3 95 e4 bd
       -0.059508324 -0.014869187 0.042717088 -0.111613534
0002c0 5a b4 ea bd 4a fc 34 3c 4e 1e 5c bc 97 f3 3d 3d
       -0.114601806 0.0110464785 -0.01343496 0.046374884
0002d0 ec 75 5a bd 83 46 dc 3c d0 da 1b be c8 a7 08 3d
       -0.053335115 0.026889091 -0.15220189 0.033363134
0002e0 45 3d c3 3d 2b f6 16 bd ed d9 4f 3c 67 c8 c6 3d
       0.095331706 -0.036855858 0.012686235 0.097061925
0002f0 d9 ea 09 3e d7 1e 05 be 74 f2 ac 3d 4d 9e 21 bd
       0.13468494 -0.13000046 0.08444682 -0.039457608
000300 28 98 91 bd f3 dd e0 bc 31 53 0e 3d cf 8f 09 3e
       -0.071090996 -0.027449584 0.034747306 0.13433765
000310 79 1e f0 3d 5d 11 55 3b 3b 3f ff 3c 36 84 da 3d
       0.11724562 0.003251157 0.03115808 0.106697485
000320 7f f9 03 3c 3a 03 e1 3c af be 1f 3c 08 8c cd 3d
       0.00805509 0.027467359 0.009750052 0.100364745
000330 15 3e 04 3d 36 23 08 bd 08 89 1b be 18 ce 02 be
       0.03228577 -0.033236705 -0.15188992 -0.12773931
000340 12 68 08 be eb e7 46 bc 8d ea 37 3d 6e 11 23 3e
       -0.1332095 -0.0121402545 0.04490142 0.15924618
000350 f2 84 c8 bd f6 dd d5 3d 9c 1e d9 bd 6a 84 52 bb
       -0.09790982 0.10442726 -0.106015414 -0.0032122382
000360 0d ec ad 3c 57 7a fd 3c 43 c1 03 be 7d 9b ef 3c
       0.021230722 0.030942125 -0.12866692 0.029248947
000370 b3 51 95 3d f2 38 58 3d fe c6 52 bd 8f 38 d7 3d
       0.072909735 0.052788682 -0.051459305 0.105088346
000380 61 45 6a bc f2 12 c2 3d 9c a3 c3 3d cd 1a 92 3d
       -0.014298768 0.0947627 0.095526904 0.07134018
000390 b6 7e 50 bd 92 08 01 bd b8 85 ca bd 68 1d 07 be
       -0.05090209 -0.031502314 -0.09888786 -0.13194811
0003a0 6a 60 84 bd 28 44 03 be df 99 5d 3d c7 7e 07 3d
       -0.06463702 -0.12818968 0.05410182 0.03307989
0003b0 43 a5 12 be 1f 7f 36 3c ab e4 1c bd c2 b3 89 bd
       -0.14320855 0.0111387065 -0.038304012 -0.06723739
0003c0 a9 58 04 bd 15 50 b9 3d 18 48 0c 3e 74 28 d9 3d
       -0.032311115 0.090484776 0.13699377 0.10603419
0003d0 5e 19 81 bc 04 00 77 3d ed cc bb bc c7 9b 1e 3d
       -0.015759166 0.06030275 -0.022924865 0.03872278
0003e0 cf 87 90 3d 8d 30 e2 3d af f7 01 be 2e 8c 0c be
       0.070571534 0.110444166 -0.1269214 -0.1372535
0003f0 fc 9b fc bd b4 1d 0c 3e f1 c0 d5 bd f8 ae 95 bd
       -0.12334439 0.13683206 -0.10437191 -0.07308763

net.0.bias f4 [256]
000000 8d 29 f3 37 cd 91 b1 3c 22 bc 80 bd d0 1d 72 3d
       2.8987206e-05 0.021675969 -0.062858835 0.059110463
000010 a8 62 87 b8 21 0e 84 39 05 4a 6a 3b d9 9e 5f 3d
       -6.455678e-05 0.0002518753 0.0035749685 0.05459485
000020 25 de 04 3a 39 f7 7e 3d 1d 83 47 bd f9 9d 85 39
       0.00050685025 0.06224749 -0.048709024 0.00025485436
000030 56 a9 73 b9 f0 af c3 b7 f0 9b a9 bb 99 ea 46 bc
       -0.00023237368 -2.3327739e-05 -0.00517606 -0.012140893
000040 ab 35 b7 38 a4 e2 b4 3c fa 7b 82 3d 2c 67 9b bb
       8.7361164e-05 0.022080727 0.06371303 -0.0047425237
000050 4b 66 2e ba f6 d2 be bc b6 64 57 bc 02 8c 27 bd
       -0.0006652816 -0.023293953 -0.01314657 -0.040905006
000060 f5 45 7f bc 76 3a 20 ba b2 7b 2c b9 b0 86 0e 35
       -0.015580644 -0.0006112227 -0.00016449278 5.309512e-07
000070 bf 81 03 bc 58 60 08 3c e5 9a 6e bb d5 64 82 3c
       -0.008026539 0.008323751 -0.0036408242 0.015917221
000080 62 44 a9 3c c8 60 4a 3d 96 dc a0 bc c7 c9 11 bd
       0.02066249 0.049408704 -0.019636434 -0.03559282
000090 5c 1c 8f 3d ec 5b e7 b9 bc d6 46 bd d4 38 c1 b9
       0.06987831 -0.0004412824 -0.04854463 -0.0003685417
0000a0 57 e9 f8 3c 94 b6 80 bd 5a 5d 8d bd cd 4e 40 bd
       0.030384703 -0.06284824 -0.06902571 -0.04695015
0000b0 3c 8c 87 3d 81 16 e1 b7 8e 7c e6 3c a2 a0 bd 38
       0.066185445 -2.683257e-05 0.028135564 9.0421425e-05
0000c0 23 fe 0a b9 fe af 22 b8 28 74 d5 38 a7 5d 87 3d
       -0.00013255379 -3.8787715e-05 0.00010178267 0.0660966
0000d0 76 cb 7b 3c b9 40 92 b7 14 f1 4b 3c a8 4b 55 3d
       0.015368333 -1.7434695e-05 0.012447614 0.052074105
0000e0 42 13 85 bd 0d 9c 28 bc b8 17 b9 bb 06 ec a7 ba
       -0.06497814 -0.010291112 -0.0056485794 -0.0012811429
0000f0 7e 4d 32 bd 7c 6a 71 b9 b8 8b a9 b8 d9 de 02 bd
       -0.043530934 -0.0002302322 -8.0845726e-05 -0.031950805
000100 b3 ee f5 39 55 01 bc 37 3c f9 72 3d 58 b1 8f 39
       0.00046907886 2.2411967e-05 0.05931972 0.00027407217
000110 97 4e d8 bb ae 8d 02 39 ac c6 03 39 0d 56 ba b8
       -0.0066011655 0.00012450546 0.00012567145 -8.885199e-05
000120 29 ca b0 b9 05 88 74 bd 5c a8 2a 3d ca 86 ca b8
       -0.00033719957 -0.05970003 0.041664466 -9.657217e-05
000130 6f 10 7c 3c 46 32 5d 3c 2d fc ca b8 8a 38 0f 39
       0.015384777 0.013500756 -9.679082e-05 0.00013658605
000140 5f ed bc 3c de 3f 20 ba 82 3e 84 bd 0e 18 24 bb
       0.023062406 -0.00061130326 -0.06457235 -0.0025038752
000150 fd 4c 5d ba 78 58 16 38 5f 84 7f bc e0 c4 81 bc
       -0.0008441953 3.584518e-05 -0.015595525 -0.015840948
000160 59 cc e5 3c 1c 04 08 3a e0 f7 8c bd 2a db 13 bc
       0.028051542 0.00051886006 -0.06883216 -0.009024421
000170 02 76 e5 3c 1f 97 d0 b8 9f 14 35 bb 91 eb 25 b9
       0.028010372 -9.9463614e-05 -0.00276307 -0.00015823382
000180 c1 86 7e 39 63 23 0d b9 f9 3d 6b bd 4b 8d 83 bd
       0.00024273527 -0.0001345999 -0.05743215 -0.06423434
000190 86 bc e2 b8 7e 60 04 3a 5f e5 63 3b c0 d4 49 bd
       -0.00010811635 0.0005049779 0.0034774167 -0.04927516
0001a0 74 7a ad b8 81 e0 63 3d 14 9b 04 bd da 41 20 3d
       -8.2720915e-05 0.055634025 -0.032374457 0.0391253
0001b0 f8 8f ef 3a d3 fb ea 37 e0 62 ea 3a 3b a8 96 bc
       0.0018277159 2.8012239e-05 0.001788225 -0.018390765
0001c0 f2 1f 8f 37 c8 9a bd b9 a2 2a eb 39 7d 61 64 b9
       1.7061804e-05 -0.0003616421 0.00044854457 -0.00021780092
0001d0 ca eb 1b ba 90 b5 1c bd 37 f4 9d bc c5 bf 10 b9
       -0.0005947916 -0.03825909 -0.01928149 -0.0001380435
0001e0 dc 78 04 b8 4f 00 08 bc 17 61 d0 bc 78 e8 a1 3b
       -3.158381e-05 -0.008300855 -0.025436921 0.0049410425
0001f0 15 f2 6f bd a9 eb dd bc a8 ec 30 b8 f4 74 71 39
       -0.058580477 -0.02708991 -4.2182073e-05 0.0002302712
000200 a3 e8 5a 3c e6 5b 9e 3c 53 b5 bd bc 85 6a 6a bc
       0.013361129 0.01933093 -0.023157751 -0.014307623
000210 18 b0 19 b9 b9 c6 b9 b9 72 27 53 3d a4 f2 c1 36
       -0.00014656817 -0.0003543401 0.05155129 5.7800953e-06
000220 5b 51 82 3d fd 0e 75 39 89 9f fe 3b 28 a4 eb b7
       0.063631736 0.00023370604 0.007770483 -2.8090624e-05
000230 66 af e0 39 f7 56 b7 3c ea 39 d9 3c 04 5e 31 bc
       0.0004285529 0.022380335 0.026516873 -0.010825638
000240 23 b3 1f ba 88 4e 83 b9 5e de ae b9 03 f7 2d 3a
       -0.0006092062 -0.00025044777 -0.00033353543 0.0006636234
000250 3c 29 6e bd 4b 85 e0 39 90 fd d8 bc 3c f4 c1 38
       -0.058144793 0.0004282392 -0.026488096 9.248449e-05
000260 8e a7 84 3c 80 46 c7 39 04 cc 0b 3d b5 ae 76 3d
       0.016193178 0.00038008764 0.03413011 0.060225207
000270 50 97 69 3d 0f 27 fc 3b 70 f3 33 bb 6f a6 b2 3c
       0.05702907 0.007695086 -0.0027458332 0.021807877
000280 b5 4f 20 ba 4c 45 86 3d 32 30 5b 3d 86 ca 71 b7
       -0.0006115393 0.06556186 0.05351276 -1.4411873e-05
000290 7d 13 85 bd 40 51 d3 b8 9c ad 1b bc ac 7b 7a 3d
       -0.06497858 -0.00010076398 -0.009501841 0.0611531
0002a0 2d 7e 20 3a 36 35 2a b9 37 b0 eb 3c 48 a1 58 b8
       0.0006122317 -0.00016232286 0.02877055 -5.1648618e-05
0002b0 2c 0f 2f bc f2 91 f0 b8 ca e2 2f bd 86 0d 89 38
       -0.01068477 -0.00011471276 -0.042940892 6.535188e-05
0002c0 c7 91 bb 3b 35 ca 1a 3c 48 d3 87 bd e2 0c 10 3a
       0.005724165 0.009447624 -0.066320956 0.0005495084
0002d0 2b 40 1d 3a 89 fb 51 3d 3b 8a 7e 3d 28 33 95 37
       0.00059986365 0.051265273 0.062143546 1.7786006e-05
0002e0 04 1d 4f 3d b0 00 bf b9 0e f0 47 3d 54 5a 84 bb
       0.05056478 -0.0003643087 0.04881292 -0.0040390883
0002f0 71 98 13 bd 5a fd f5 b7 3d 9d 6e ba 90 c6 8d 3d
       -0.03603405 -2.9324252e-05 -0.000910241 0.069226384
000300 14 63 6e 3c 49 e3 54 bd 4b fd 8d bd c8 97 dc b8
       0.014549989 -0.05197457 -0.069330774 -0.00010518689
000310 18 4c 96 38 d7 73 30 3d e9 a7 3b 3c 05 d5 de bc
       7.166731e-05 0.043079223 0.011453607 -0.027201185
000320 cf 8c 66 b8 38 49 5c 3c 88 ef d0 b9 c8 63 34 3c
       -5.496741e-05 0.013445191 -0.00039851316 0.011010118
000330 eb ab 90 bb 87 2f a2 3c 33 f8 37 bd b7 34 83 bd
       -0.0044150255 0.019798053 -0.044914436 -0.06406539
000340 ad 74 15 bd f8 40 0b 37 f0 19 0f 3a 6b 05 0b bd
       -0.036488224 8.300172e-06 0.0005458882 -0.033940714
000350 e1 28 b4 3c fb b8 87 3b 59 8f 8b 39 bc 45 89 38
       0.021992149 0.0041419244 0.00026618948 6.545658e-05
000360 c9 a5 3a 3d ab 50 5a bc 0a 3a d2 3c 6c c6 6b 3d
       0.04556826 -0.013324897 0.02566244 0.057562277
000370 bd 0b 86 3d 18 42 19 3d a0 a3 a2 36 5e ff 2e ba
       0.06545208 0.037416548 4.8470247e-06 -0.0006675626
000380 55 3c 69 3d 5c a2 ec bc e1 48 13 bd a0 fa 35 3d
       0.056942303 -0.028886013 -0.035958175 0.044428468
000390 d6 8a 89 3d 96 8b 8e 3d 06 d7 71 bc 4c 68 e2 3c
       0.06715934 0.06960218 -0.014760738 0.027637623
0003a0 f4 9e 9c 36 6c fa 17 ba a5 11 0e 3d e1 72 85 3d
       4.667667e-06 -0.00057975086 0.034684796 0.06516052
0003b0 f0 ab 38 3b d7 0f 39 bd 3f 9e 1c 3a 01 c7 1d 3d
       0.0028178655 -0.04518112 0.0005974508 0.038519863
0003c0 1f 5c 65 b8 e4 b1 56 b9 6f af 93 b8 8b ea b7 39
       -5.468365e-05 -0.000204749 -7.042183e-05 0.00035079228
0003d0 02 58 16 39 3f 0b cf bb 2f 6a a7 b9 ff cb 51 b9
       0.000143379 -0.0063184793 -0.00031931835 -0.00020007788
0003e0 58 0e 8b b9 25 c9 7f 3d cc 7c 44 bd ca e3 39 bc
       -0.00026522833 0.062447686 -0.047970578 -0.011345813
0003f0 ca 9e 85 3d b1 09 ef b9 32 76 80 37 3a 3c 0e bd
       0.06524427 -0.00045592853 1.5313828e-05 -0.034725405

net.1.weight f4 [256]
000000 69 39 80 3f 45 e0 7d 3f fb ed 7a 3f e3 80 80 3f
       1.001752 0.99170333 0.9801938 1.0039333
000010 64 78 81 3f 6c 22 7a 3f 33 11 77 3f c8 75 7c 3f
       1.0114865 0.97708774 0.9651062 0.9861722
000020 11 83 7b 3f 16 aa 77 3f bf 49 81 3f 8d 5d 83 3f
       0.98246866 0.96743906 1.010063 1.0262924
000030 03 67 7b 3f fb c8 78 3f 6f 6c 82 3f 0d 49 78 3f
       0.9820406 0.9718167 1.0189341 0.96986467
000040 f1 ca 7c 3f 6a 8c 81 3f da 61 7f 3f 34 8b 7c 3f
       0.98747164 1.0120976 0.99758685 0.9864991
000050 c2 51 7c 3f 6d 20 7c 3f 28 57 82 3f 51 0c 82 3f
       0.9856225 0.9848698 1.0182848 1.0160009
000060 f2 7e 7d 3f 1c e5 7a 3f 7a 82 82 3f 01 ea 7b 3f
       0.9902183 0.98005843 1.0196068 0.98403937
000070 2d f3 7d 3f ae e8 7f 3f 84 f0 7b 3f a3 02 7b 3f
       0.9919918 0.99964416 0.9841387 0.980509
000080 81 a6 78 3f c4 c1 81 3f 79 6a 81 3f af ea 7d 3f
       0.97129065 1.0137258 1.0110618 0.99186224
000090 89 ca 7e 3f f0 24 7b 3f 5e 31 7e 3f bc 54 81 3f
       0.99527794 0.9810324 0.9929408 1.0103984
0000a0 d4 35 7a 3f 90 60 7f 3f 5d 35 77 3f 13 d6 81 3f
       0.97738385 0.9975672 0.965658 1.0143455
0000b0 aa cf 80 3f eb f6 7b 3f 89 01 79 3f 38 98 7e 3f
       1.0063374 0.9842364 0.9726797 0.9945102
0000c0 00 59 80 3f 38 04 83 3f 54 fb 81 3f c1 9c 7b 3f
       1.0027161 1.0235662 1.0154824 0.9828606
0000d0 f2 7b 7f 3f 6a f9 7e 3f e7 47 7c 3f 58 3f 7f 3f
       0.997985 0.99599326 0.98547214 0.9970603
0000e0 c1 34 7b 3f 91 e7 7c 3f 2e 80 81 3f 4a c0 78 3f
       0.9812737 0.9879084 1.0117242 0.9716841
0000f0 db 22 7c 3f 49 74 7f 3f 00 b2 7b 3f 99 35 7d 3f
       0.98490685 0.9978681 0.9831848 0.9890991
000100 31 8b 81 3f 13 18 7a 3f 33 f0 80 3f 9f 50 7c 3f
       1.0120603 0.97692984 1.0073303 0.9856052
000110 d6 44 80 3f 9f 54 7c 3f fa 25 7f 3f 4c f2 79 3f
       1.0021007 0.9856662 0.9966732 0.9763534
000120 de da 79 3f 6c b7 7a 3f 20 20 79 3f d9 50 80 3f
       0.9759959 0.9793613 0.97314644 1.0024673
000130 c3 0e 80 3f e1 40 79 3f 47 fd 80 3f ee a0 81 3f
       1.0004505 0.9736462 1.0077294 1.0127237
000140 93 bb 7b 3f 9d 72 77 3f b5 4a 83 3f e2 f5 81 3f
       0.9833309 0.9665926 1.0257174 1.0153162
000150 73 87 7c 3f 0b 07 7a 3f 34 d1 83 3f 3d e5 7e 3f
       0.9864418 0.97666997 1.0298219 0.9956854
000160 d3 53 81 3f 52 92 77 3f 42 b7 7c 3f 62 75 7b 3f
       1.0103706 0.9670764 0.9871713 0.98225987
000170 78 ff 78 3f 09 fb 7a 3f db e1 77 3f e5 04 82 3f
       0.97264814 0.980393 0.96829003 1.0157744
000180 a6 3e 7e 3f 3c 37 7e 3f d1 4e 7a 3f 5d 92 7e 3f
       0.99314344 0.9930303 0.97776514 0.9944208
000190 4b 9a 7c 3f 5a ce 7f 3f e0 ac 7d 3f 0f fe 7b 3f
       0.9867293 0.9992424 0.9909191 0.9843454
0001a0 3c da 82 3f ab 2f 84 3f a8 d7 7a 3f e3 1c 7d 3f
       1.022285 1.0327047 0.97985315 0.988722
0001b0 60 77 7b 3f 57 39 7a 3f 2c fc 7c 3f 4c d6 7b 3f
       0.98229027 0.97743744 0.98822284 0.98373866
0001c0 e3 eb 7a 3f c5 f9 7f 3f e5 4b 7e 3f 97 77 7f 3f
       0.98016185 0.99990493 0.99334556 0.99791855
0001d0 6b b3 7f 3f fb 39 80 3f f2 b1 7f 3f c3 41 7b 3f
       0.99883145 1.0017694 0.998809 0.9814722
0001e0 bf 70 79 3f a9 ee 78 3f 48 b3 7c 3f 4b f8 7b 3f
       0.9743766 0.97239166 0.9871106 0.9842574
0001f0 35 41 7f 3f 8b d4 7e 3f 81 28 78 3f 7d 50 7e 3f
       0.99708873 0.99543065 0.96936804 0.99341565
000200 66 44 7e 3f 76 e2 7e 3f 82 37 82 3f e5 44 80 3f
       0.9932312 0.995643 1.017319 1.0021025
000210 0d de 80 3f 2c 42 7b 3f 0f eb 77 3f b0 a8 7a 3f
       1.0067765 0.98147845 0.96843046 0.97913647
000220 0d 76 80 3f 59 30 7f 3f a9 60 80 3f 5e 59 80 3f
       1.0036026 0.9968315 1.0029498 1.0027273
000230 1c c0 7b 3f 7a f7 81 3f e4 aa 7d 3f 4f e8 79 3f
       0.9834001 1.0153649 0.99088883 0.976201
000240 76 61 81 3f 41 98 80 3f 8f be 7c 3f cd 55 81 3f
       1.0107868 1.0046464 0.9872827 1.0104309
000250 16 26 7f 3f 63 f6 81 3f 0c ae 80 3f 58 ef 7e 3f
       0.9966749 1.0153316 1.0053115 0.9958396
000260 b3 1d 81 3f 26 9a 7c 3f 9e 64 7d 3f c8 68 79 3f
       1.0087188 0.9867271 0.98981655 0.9742551
000270 9f d6 7e 3f d0 df 80 3f 7b ac 78 3f e9 eb 7f 3f
       0.99546236 1.0068302 0.97138184 0.99969345
000280 d1 d3 7b 3f 09 16 7c 3f 97 6c 80 3f 7b d3 76 3f
       0.9837008 0.9847112 1.0033139 0.96416444
000290 bb 09 7a 3f ad 9d 81 3f 54 8c 7b 3f 67 d3 79 3f
       0.976711 1.0126244 0.98261 0.975882
0002a0 27 07 7d 3f fe 8b 7b 3f 35 22 80 3f 06 42 7e 3f
       0.9883904 0.98260486 1.0010439 0.99319494
0002b0 67 a2 84 3f d1 a9 7e 3f 8a c7 79 3f 54 ca 7f 3f
       1.0362061 0.9947787 0.975701 0.99918103
0002c0 cf 0a 82 3f 04 6f 7b 3f 78 a2 81 3f 9f 04 82 3f
       1.0159549 0.9821627 1.0127707 1.015766
0002d0 91 2c 7f 3f e0 19 7f 3f 3c 44 7d 3f ce 6d 78 3f
       0.9967738 0.9964886 0.9893224 0.9704255
0002e0 6d 4e 81 3f b3 b3 79 3f 0a 2b 81 3f 85 4f 7d 3f
       1.0102059 0.97539824 1.009126 0.9894946
0002f0 52 54 7f 3f 74 08 81 3f 72 95 7d 3f 7a 92 76 3f
       0.9973804 1.0080705 0.9905616 0.96317255
000300 d4 87 7d 3f b9 5c 7c 3f 2f b3 81 3f af 03 77 3f
       0.9903538 0.98578984 1.0132807 0.96489996
000310 9e 67 7a 3f f8 48 7d 3f 7f 0c 81 3f 0d b0 7f 3f
       0.9781436 0.98939466 1.0081939 0.9987801
000320 f4 b0 7a 3f dd 7b 79 3f 96 c9 7d 3f f2 0e 78 3f
       0.9792626 0.97454625 0.9913572 0.96897805
000330 6a 11 79 3f c1 1b 7b 3f 26 91 7c 3f 5d 80 79 3f
       0.97292197 0.98089224 0.9865898 0.9746149
000340 d7 17 75 3f ef 81 84 3f 93 9b 7e 3f e2 72 79 3f
       0.957395 1.0352153 0.9945614 0.9744092
000350 23 89 81 3f 0c 09 82 3f 19 4e 7f 3f 21 e9 7a 3f
       1.0119976 1.0159011 0.9972854 0.98011976
000360 0a 94 7c 3f 99 0b 7d 3f bb e4 7e 3f cb 4a 7f 3f
       0.9866339 0.9884582 0.99567765 0.997235
000370 2d 66 80 3f d6 c6 7c 3f 48 67 7a 3f d1 23 7b 3f
       1.0031182 0.987409 0.97813845 0.98101526
000380 12 61 80 3f f0 86 80 3f a8 77 82 3f 64 49 81 3f
       1.0029624 1.004118 1.0192766 1.0100522
000390 bf 37 76 3f c6 92 78 3f 6c 53 79 3f fc 62 7d 3f
       0.9617881 0.9709896 0.97392917 0.98979163
0003a0 66 d5 80 3f 85 d4 7a 3f 5c d2 7e 3f 9e 51 80 3f
       1.0065124 0.9798053 0.9953973 1.0024908
0003b0 01 45 7f 3f 06 98 7b 3f 83 1c 7f 3f 94 9c 83 3f
       0.99714667 0.98278844 0.9965288 1.0282159
0003c0 72 c8 7e 3f 4a ad 7d 3f c6 6a 7c 3f 82 48 78 3f
       0.99524605 0.99092543 0.98600423 0.9698564
0003d0 f1 d4 78 3f d6 54 7b 3f 46 f4 7d 3f 0c 49 7b 3f
       0.9719992 0.98176324 0.99200857 0.98158336
0003e0 cd 9e 7e 3f c1 d4 79 3f 2e 1d 7e 3f e1 77 83 3f
       0.9946106 0.9759026 0.99263275 1.0270959
0003f0 af 0d 7c 3f 75 51 7c 3f da 29 81 3f 92 db 80 3f
       0.9845838 0.98561794 1.0090897 1.0067008

net.1.bias f4 [256]
000000 c6 c3 03 3c 5f 6c 50 3c cc 6f 93 bc 0d 6f 8d bc
       0.0080422815 0.01272115 -0.017997645 -0.017264867
000010 9f 1b 33 3c c5 cd 0a bc 9c 6b f6 bc 1b 50 9b 3b
       0.010931878 -0.008471911 -0.030080609 0.004739774
000020 e2 09 f7 bb 08 9f be bc b1 b6 25 3b c6 b3 fc 3c
       -0.00753902 -0.023269191 0.0025285895 0.030847441
000030 1b e5 a3 bc 82 8d d9 bb e9 b8 28 3c 57 ef c3 bc
       -0.020006707 -0.0066391835 0.010297992 -0.023917837
000040 a4 6f 8a bc bc 84 a9 3c 86 25 a9 3b ea 50 5f 3a
       -0.016898938 0.020693175 0.005161944 0.0008518832
000050 a2 ad 43 bb 23 0d a7 bc 9c 17 de 3b 66 58 22 3d
       -0.0029858132 -0.020392006 0.006777717 0.039635085
000060 35 10 94 3a cb 13 ad 3a 85 cc 81 3c 0e d6 32 39
       0.0011296334 0.0013204751 0.015844593 0.00017055144
000070 27 df 0b bc eb 3f 95 3c a5 14 e3 bb c3 9e 01 bc
       -0.00853709 0.018218955 -0.0069299513 -0.007911387
000080 f2 0d 11 bd 1f ea ef 3b 72 03 78 3c 6e 40 86 3c
       -0.03541369 0.0073216106 0.01513754 0.016388144
000090 a3 e5 97 3b 5a c9 98 bc e3 a4 85 39 7b 3b ba bb
       0.004635529 -0.0186507 0.00025490587 -0.00568336
0000a0 c7 5f 52 bb 20 b3 85 3b f8 9b 1f bd b1 41 60 3c
       -0.0032100545 0.0040801913 -0.038967103 0.013687537
0000b0 7d dc 61 3b 30 6a d7 3b 3b c2 ae 3b d2 74 ed 3b
       0.0034463697 0.006573938 0.0053332127 0.007246592
0000c0 c9 f2 01 3c 6b 0c d3 3c b3 d5 a1 3b 1e c3 0b 3c
       0.00793142 0.025762757 0.004938805 0.008530406
0000d0 db 59 37 3c 03 46 1d 3b b4 c3 22 3b 0a 0c 91 3b
       0.011190857 0.002399803 0.0024835886 0.004426484
0000e0 58 06 55 3b 8a 0e f4 bc fd 6a ba 3b ec ed 96 bc
       0.0032505002 -0.029792089 0.0056890235 -0.018423997
0000f0 f4 65 65 bc 84 8e 03 bd a3 f6 93 3b 9a 4b e4 bb
       -0.014001358 -0.032118335 0.0045154854 -0.00696702
000100 34 e8 36 3a 18 9b 5b bc 73 a1 34 ba 5e 72 29 bc
       0.000697735 -0.013403676 -0.0006890513 -0.010342209
000110 dc a9 6a 3c cb af ab bb 7d c9 59 3c 1c 0f 80 bc
       0.014322724 -0.005239462 0.013292667 -0.015632205
000120 17 97 bf 3b 8a c6 87 bc 95 a9 85 bc 74 dd 84 3c
       0.0058468687 -0.016574163 -0.016316215 0.016218878
000130 66 fc 8f 3c ed 30 76 bc dd ce 84 3c c8 67 01 3d
       0.017576408 -0.015026313 0.016211921 0.031593114
000140 f6 39 a8 bc b9 32 87 bc 84 1d 4d 3c 36 d3 8e 3c
       -0.02053545 -0.016503679 0.012519244 0.017434698
000150 5b 1c d6 bb c5 b4 12 bc 66 9c 7b 3c e8 e5 4c bc
       -0.006534142 -0.008954232 0.0153571125 -0.012505986
000160 7a be 7d 3c e7 c0 d2 bc b6 28 51 bc b1 97 29 bc
       0.015487308 -0.025726749 -0.012766054 -0.010351107
000170 ca 78 68 bc 7f 87 1d bc 2f 1b ec bc bf b6 29 3b
       -0.014188955 -0.009614824 -0.028821556 0.0025896279
000180 7c a5 85 3a 10 55 c2 3b 35 3f bb bb e1 d3 8f 3b
       0.0010196413 0.0059305504 -0.005714322 0.0043892716
000190 a0 b9 d4 bc bc 41 3d 3c 67 a4 10 3c 42 3e 9c bb
       -0.02596742 0.011551317 0.008828259 -0.004768164
0001a0 55 6f c0 3c b6 0e 10 3c 39 d5 10 3a 8b 18 79 3c
       0.023490587 0.00879257 0.0005524937 0.015203605
0001b0 0b 7a b0 bb dc a1 67 bc ac 51 e2 3b 7d 98 a8 3b
       -0.0053856424 -0.014137711 0.0069067087 0.005145131
0001c0 d8 87 02 bb c0 96 59 bb 4b fe 26 3c c8 3a 87 bc
       -0.0019917395 -0.0033201426 0.010192464 -0.016507521
0001d0 05 1a 13 3c 8d 74 0c bc af 0c 5f 3c f5 3e f2 b9
       0.0089783715 -0.00857271 0.013613864 -0.00046204744
0001e0 08 15 60 bc e8 e8 b6 bc 40 dd ec ba 90 39 0c bb
       -0.013676889 -0.022327855 -0.0018071309 -0.0021396615
0001f0 d6 75 8d bc 19 a5 7a 3c 54 cc 9c bc 11 30 9b 3b
       -0.017268103 0.015298151 -0.0191404 0.0047359546
000200 0e 7e 27 3b 38 47 9d 3a 54 4c e6 3b fe 09 0a 3b
       0.0025557312 0.0011999374 0.007028142 0.0021063085
000210 d3 c8 9f 3c a5 5a 3c bc 20 a2 9e bc d6 38 2f bb
       0.01950494 -0.011496221 -0.019364417 -0.0026736758
000220 68 4a 42 39 6a a8 ac 3b a5 53 3a 3c ec 11 78 bc
       0.00018529 0.0052691 0.0113724815 -0.015140992
000230 e0 49 8a 39 77 c3 ac 3b a4 5f 87 bb 66 e1 a7 bc
       0.00026376452 0.0052723247 -0.0041312743 -0.02049322
000240 29 ae d2 3b 1c 42 43 3c 45 2a dc bc b9 10 a8 3c
       0.006429453 0.011917617 -0.026875624 0.020515786
000250 1b d5 5c 3b d3 fa 88 3c 16 21 a6 bb ce 1f 2e bc
       0.0033696357 0.016721165 -0.005069862 -0.0106277
000260 ca 66 ad ba 55 91 c5 bb 49 cb b7 bc b0 72 5d bb
       -0.0013229486 -0.006029288 -0.022435801 -0.0033790283
000270 49 5b bd ba 9b 2a 43 3c ea 9c 0f bc b4 65 5c 3b
       -0.0014446761 0.011912013 -0.008765439 0.0033629956
000280 f3 4e 47 3c 15 42 0c bc 30 14 c3 3c e0 8a bd bc
       0.012164819 -0.008560677 0.023813337 -0.02313751
000290 75 ba 8d bb 53 d6 ae 3c e6 5a 96 bc c6 f0 db bc
       -0.004325206 0.021342432 -0.01835389 -0.026848208
0002a0 16 39 90 bb 18 a4 e1 ba cb 02 22 3c 59 54 a7 3b
       -0.0044013364 -0.0017215041 0.009888361 0.0051064906
0002b0 b7 b7 25 3d b4 20 e6 3b ba bf 39 bc 48 3e 67 b8
       0.040458407 0.0070229415 -0.011337215 -5.5132696e-05
0002c0 fe 5a 51 3b 6f bc 32 bc 9c 72 3b bc 07 cb fd bb
       0.0031945105 -0.010909184 -0.011440899 -0.00774515
0002d0 09 38 53 bb 8b 6e 55 bc 4a 64 d7 b8 f5 86 b3 bc
       -0.0032229444 -0.013026844 -0.00010270679 -0.021914938
0002e0 81 ef 33 3c 4d 44 57 bc 82 13 59 3c a1 9c ac 3b
       0.010982395 -0.013138843 0.01324928 0.005267695
0002f0 d0 7d 09 3c 39 25 8d 3c 12 b9 2d 3b 26 39 ad bc
       0.008391812 0.017229663 0.0026508016 -0.021145415
000300 2f 1f 12 3c c3 8c c2 bb b7 91 b6 bb 6c 85 ab bc
       0.008918568 -0.0059371903 -0.00557157 -0.020937644
000310 1e 88 8d bc 86 73 9c 3b c1 e6 c0 3b ad 1b 92 bb
       -0.01727682 0.0047745137 0.005886883 -0.0044588656
000320 09 bd 0b bc e1 aa ec bb 2d 7b c1 bc 06 19 6a bc
       -0.008528956 -0.007222519 -0.023618305 -0.014288193
000330 67 0b 1c bc ff d8 1e 3c 1c 13 46 3c db 51 12 bc
       -0.009524203 0.009695291 0.012089517 -0.008930649
000340 10 46 2c bd 24 7e 00 3d ab 69 cf 3c 39 1b 5e bc
       -0.042059004 0.031370297 0.025318941 -0.013556295
000350 a1 5c 97 3c 3a 8a 97 3c c8 7f 1b 3c eb c9 9d bc
       0.018476786 0.018498529 0.009490915 -0.019261321
000360 6a ab c6 bb aa a5 65 ba 17 8d 81 bb c1 98 0f 3a
       -0.0060629146 -0.00087603426 -0.003953587 0.0005477779
000370 dd bf 43 bb 4d 82 82 ba 87 e4 8e 3a da fc 85 bc
       -0.0029868998 -0.0009957046 0.0010901847 -0.01635592
000380 ef 6f af 3c b5 cf 37 3c a2 9d 97 3c 1d aa 8f 3c
       0.021415679 0.011218955 0.018507782 0.017537171
000390 d8 42 b3 bc c4 33 15 3c ce fd 3d bc e1 1c cd bb
       -0.02188246 0.00910658 -0.011596156 -0.006259546
0003a0 94 33 19 bc b5 8f 60 3b d8 e9 b6 bb d7 a7 90 3b
       -0.009350676 0.0034265344 -0.0055820756 0.0044145393
0003b0 47 e7 b9 3a 35 ae 6a bc f0 e8 be 3c db 64 da 3c
       0.0014183306 -0.014323761 0.023304433 0.02665942
0003c0 bb c5 8d 3c 67 2b 20 3b 3f a5 f0 bb f2 33 9c bb
       0.0173062 0.0024439932 -0.0073439176 -0.0047669346
0003d0 82 27 b9 bb 23 f2 8f bc c6 a9 7d 3b 13 b5 c4 3a
       -0.0056504617 -0.017571514 0.003870593 0.0015007578
0003e0 90 68 7a 3b db 00 10 bb 44 d7 97 ba f3 e6 9c 3c
       0.0038209297 -0.0021973166 -0.001158454 0.019153094
0003f0 e2 0d ea bb 7e 26 df 3b 6f c3 71 3c 86 85 e7 3a
       -0.0071427682 0.0068100085 0.014756068 0.0017663694

net.1.running_mean f4 [256]
000000 ca 04 c1 3d 9f 77 93 40 b4 70 f3 40 78 b0 a1 bf
       0.094247416 4.608352 7.6075077 -1.2631979
000010 65 cb 00 c0 e6 64 0c 3f 34 f3 25 c0 e8 50 1f bf
       -2.0124142 0.5484146 -2.592969 -0.6223283
000020 49 54 4a c0 94 08 c3 3f 67 aa 27 c0 28 14 1c 3f
       -3.1613944 1.5236993 -2.6197755 0.60968256
000030 32 8f 91 40 4f 92 3e 40 67 54 45 3f 74 3e f3 be
       4.54873 2.97768 0.7708191 -0.47508585
000040 e9 a0 47 be 23 b4 00 c0 1f ef c2 bf 3a f1 4d 3f
       -0.19494976 -2.0109947 -1.5229224 0.8044621
000050 cc 03 4a 40 80 55 50 40 ac 32 9b bf e9 54 8b 3f
       3.1564817 3.2552185 -1.2124839 1.0885288
000060 3c 50 3b c0 af 62 13 c0 28 6c 90 40 8d a5 9f 3f
       -2.926772 -2.3028982 4.5132027 1.2472397
000070 4f 68 33 3f ea 32 61 c0 66 6c 80 3d f7 8b 12 c0
       0.7008104 -3.5187325 0.06270675 -2.2897928
000080 e3 12 00 3f a3 69 29 40 51 26 49 c0 7a cb 6f c0
       0.5002882 2.6470726 -3.1429636 -3.7467942
000090 75 a9 9e 40 25 30 1e 40 a6 ff 78 3f 6b 0d 07 40
       4.9581857 2.4716885 0.9726509 2.110194
0000a0 cc d6 39 c0 cd 19 9c bf 46 14 99 bf 20 ce 66 c0
       -2.9037352 -1.2195374 -1.1959312 -3.6063309
0000b0 48 25 55 3d 89 f6 41 c0 1f 24 5b 3f d1 0a db bf
       0.052037507 -3.0306723 0.8560199 -1.7112676
0000c0 45 5b ab 40 40 75 1f 40 10 37 dc 40 26 a2 39 bf
       5.3548913 2.4915314 6.8817215 -0.72513044
0000d0 2f c2 71 3f d4 55 c9 3f a2 1a 0d c0 ea 07 84 bf
       0.94436926 1.5729318 -2.2047505 -1.0314915
0000e0 39 bd 82 be 18 8e c5 3f 4f cf d7 bf 14 34 63 3f
       -0.2553499 1.5433989 -1.686014 0.8875134
0000f0 73 cc 6b 40 44 ab 1e c0 18 2c 02 3f 57 8a aa 40
       3.6843536 -2.4792032 0.5084853 5.329387
000100 4f 44 b3 be 36 0a 22 bf b6 33 83 bf 8a 20 4b 3f
       -0.35013053 -0.6329683 -1.0250156 0.79346526
000110 a0 e4 10 c0 74 a1 21 be 0e 27 d4 3f 56 a3 ae 40
       -2.2639542 -0.15784246 1.6574419 5.4574385
000120 e3 b7 cb c0 d0 e3 55 c0 e1 2d 2c 3f 11 12 07 41
       -6.366197 -3.3420296 0.67257506 8.441911
000130 d4 d7 87 40 c8 81 71 c0 e3 6f 25 bf d6 30 aa 3f
       4.245096 -3.7735462 -0.6462385 1.3296154
000140 e0 93 74 3e 4c b1 80 40 b1 9d 8e c0 fc cd ee bf
       0.23884535 4.0216427 -4.4567494 -1.8656611
000150 c2 0a 54 c0 9b c5 4f 40 97 40 a4 40 37 3e 91 40
       -3.3131566 3.2464359 5.1328845 4.5388446
000160 50 f5 b9 3f 5a 99 4b 3f 2c 84 9e c0 ba 82 c4 3f
       1.4527988 0.7953087 -4.9536343 1.5352395
000170 21 f7 95 bf 65 b3 ee 3a 3b 33 6d 3f c3 35 c9 40
       -1.1716043 0.0018211423 0.92656296 6.2878127
000180 80 b4 bc bf 74 f0 a2 bf 50 4d e9 c0 58 ba 96 40
       -1.4742584 -1.272963 -7.2906876 4.710247
000190 5a 03 96 40 86 e6 87 bf 1f 32 d8 bf 1a 50 a4 bf
       4.687909 -1.0617225 -1.6890296 -1.2836945
0001a0 d2 c1 bb bf 23 74 ec bf 20 2e ad bf 95 6b 0b 40
       -1.4668524 -1.8472942 -1.3529701 2.1784413
0001b0 be 5f 52 3f 72 4b ab be 5b 77 ce 3f ba 64 d8 c0
       0.8217734 -0.33455998 1.6130174 -6.7622957
0001c0 04 c9 06 3e 04 61 c2 c0 fc ed 38 c0 f7 30 92 3e
       0.13162619 -6.0743427 -2.8895254 0.28552982
0001d0 d0 c0 52 c0 c3 ec 4d 3f 5b 8a 81 c0 11 00 8d c0
       -3.2930183 0.80439395 -4.048139 -4.406258
0001e0 d3 c8 39 3e e3 ef 81 c0 54 ec 52 c0 ca de 49 3d
       0.18143015 -4.060533 -3.2956743 0.049284734
0001f0 dc d5 5d c0 36 c3 8f c0 cc f2 19 3f c1 9c 01 3e
       -3.466178 -4.4925795 0.60136104 0.12657453
000200 8a 60 ef be 8a a6 ba c0 86 9e 44 40 7c 2e 4e c0
       -0.4675334 -5.8328295 3.0721755 -3.2215872
000210 ec a5 c6 3b 8b 97 1d be e7 d9 b5 bf 15 5a e8 3f
       0.00606226 -0.1538984 -1.4207124 1.8152491
000220 51 d0 1a 40 31 7e 32 c0 b6 e4 ae 3f 72 0b c4 bf
       2.4189646 -2.788952 1.3663547 -1.5315993
000230 ed 71 7c 40 ee ba 7b bf 62 ce 11 be d9 22 7c 40
       3.9444535 -0.9833211 -0.14238885 3.939627
000240 d8 b5 ce c0 91 81 58 c0 c8 98 3c c0 e3 50 59 40
       -6.4596977 -3.382908 -2.946825 3.395562
000250 aa ad 27 c0 58 b8 07 40 4d 45 42 40 9a 90 16 40
       -2.6199746 2.1206264 3.0354798 2.3525758
000260 e7 f7 d0 bf 65 88 0f 40 9c 18 48 c0 dd d4 19 3f
       -1.6325654 2.2426999 -3.126502 0.6009043
000270 b1 b1 3e c0 b3 3c ce bf a0 f7 fa bf 4a 00 ba bf
       -2.9795954 -1.6112274 -1.9606819 -1.4531338
000280 6d a5 9d 3f f6 a4 d3 bf c8 e1 11 c1 f2 2f 86 c0
       1.2316109 -1.6534717 -9.117622 -4.1933527
000290 30 d3 0f 40 b0 7f 1f 40 d6 ca 2c 3e 98 1f 5a c0
       2.2472649 2.4921684 0.16874251 -3.4081783
0002a0 c9 94 dc 3f e9 72 28 bf b2 ba e3 3e 9b 04 a1 bf
       1.7232906 -0.6580034 0.44478375 -1.257953
0002b0 1c dd cb 3f ef 6c f9 3f a9 3c b0 40 db d3 d4 3f
       1.5926852 1.9486369 5.507405 1.6627153
0002c0 6c ba a5 40 b8 80 38 c0 18 41 ed 40 af a3 82 40
       5.1790066 -2.8828564 7.414196 4.082481
0002d0 2d 4b 88 40 2e 0d 46 40 4b 61 9c 40 85 61 04 40
       4.2591767 3.0945544 4.8868766 2.0684521
0002e0 a8 10 32 40 06 24 cd 40 84 2f 78 40 9a 73 cb bf
       2.7822666 6.4106474 3.8779001 -1.5894654
0002f0 37 2d 82 3f 6a cf da 3f 74 42 42 c0 04 26 ed bf
       1.0170048 1.7094548 -3.035306 -1.8527226
000300 71 23 89 3f 8e d8 bd bf 5e 21 2f 3d c0 3f 8b 3f
       1.0713941 -1.4831712 0.04275643 1.087883
000310 cc 81 02 bf 29 40 0a be 1b db 20 3d c4 27 0b 40
       -0.50979304 -0.13501038 0.039271455 2.174302
000320 13 7e 6a 3f 50 a9 c3 40 be d7 7c 40 10 f8 75 3e
       0.91598624 6.114418 3.9506679 0.2402041
000330 97 58 4e 40 fe 24 0d bf d8 bc 0c 3e f3 77 64 40
       3.224157 -0.5513457 0.13743913 3.5698211
000340 eb 43 b9 c0 a9 de 15 40 ff 2c 17 3e a2 2b fa 3f
       -5.789541 2.341715 0.14763258 1.9544566
000350 24 7c 0e be 6a 2e ce be 2a b5 4a 40 48 f7 84 40
       -0.13914543 -0.40269786 3.1673074 4.1551857
000360 03 8e 86 bf 0c 97 eb be 7d fe 8b 40 b3 01 9c 40
       -1.0512089 -0.46013677 4.3748155 4.8752074
000370 ff 53 e4 3f ca a5 e2 40 1c 40 19 3f ca 5e de bf
       1.7838134 7.082738 0.5986345 -1.7372677
000380 c5 59 45 c0 33 0d 22 40 f1 33 8d 40 1d 4a 4a 3e
       -3.083604 2.5320556 4.4125905 0.19754834
000390 f4 fa 96 40 0d 21 2e bf 2b ec 9b bf fb 00 08 40
       4.718134 -0.6801918 -1.2181448 2.1250598
0003a0 cc c3 9d bf 92 ea 2b bf 68 31 17 3f 5d 47 f6 bf
       -1.2325377 -0.671548 0.5905976 -1.9240528
0003b0 a7 6c 27 bf 90 a4 bf bf 28 77 ca c0 0a 2d 3b 40
       -0.65400165 -1.4972095 -6.3270454 2.924624
0003c0 04 37 c4 bf ba 34 f8 bf c1 2d 03 bf 2a 8c 15 41
       -1.532929 -1.9391091 -0.5124169 9.34672
0003d0 ba 68 86 bf 9a b0 00 40 a2 dd bf c0 20 0b 4c bf
       -1.050071 2.010779 -5.995805 -0.79704475
0003e0 e1 76 5e bf 3f 7f 46 bf ee c0 47 c0 7c 3b c9 bf
       -0.86900145 -0.7753791 -3.1211505 -1.5721278
0003f0 81 74 d4 3f fa 9d 18 c0 c2 d0 e2 be 9f 22 25 bf
       1.6598054 -2.3846421 -0.44299895 -0.6450595

net.1.running_var f4 [256]
000000 e6 7d 6b 3f b6 d2 11 3f da dc 26 3f 29 71 09 3f
       0.9198898 0.56962144 0.6518074 0.53688294
000010 e7 53 e5 3e 75 0a 1b 3f c5 f3 fe 3e 88 e3 83 3f
       0.44790575 0.6056283 0.49795356 1.0303812
000020 00 cf 83 3f a7 b4 85 3f b7 3e 20 3f 36 8b 1a 3f
       1.0297546 1.0445756 0.62595695 0.6036867
000030 f8 39 28 3f 46 5a fd 3e 6c 1b ae 3e 2b f9 2e 3f
       0.65713453 0.49482936 0.34005296 0.6834895
000040 37 f7 60 3f 7f 27 37 3f e7 68 12 3f f1 4c 86 3f
       0.8787722 0.7154464 0.5719132 1.0492231
000050 e6 ad 30 3f 33 05 23 3f c7 65 c3 3e de ab 48 3f
       0.6901535 0.6367981 0.38163587 0.7838725
000060 2a c2 1b 3f f8 26 26 3f d3 26 9a 3f da 08 e5 3e
       0.60843146 0.6490321 1.2043098 0.44733316
000070 8f 34 c1 3f 9c f2 6f 3f df c8 c0 3f 74 e8 1b 3f
       1.5094165 0.9372957 1.5061301 0.6090157
000080 02 95 8b 3f 05 5a 98 3f 8d af 14 3f 08 11 05 3f
       1.0904849 1.1902472 0.5808037 0.5197911
000090 d0 5b 16 40 dc 58 03 3f ca 3e 32 3f 6d 21 41 3e
       2.3493538 0.51307464 0.6962706 0.18860407
0000a0 18 1e 03 3f 2f 3b 12 3f 84 0e d9 3e eb 2c 5e 3f
       0.51217794 0.57121557 0.42393887 0.8678729
0000b0 ff 90 25 3f 97 d0 51 3f e5 fd d4 3e be 11 a3 3f
       0.6467437 0.8195891 0.41599956 1.273979
0000c0 86 09 89 3f 87 2d 50 3f a0 b8 00 3f 19 31 4d 3f
       1.0706031 0.8131947 0.50281715 0.8015304
0000d0 a7 3f 2d 3f a4 f6 f8 3e 31 97 8b 3f 5a 58 0e 3f
       0.6767525 0.48625672 1.0905515 0.55603564
0000e0 a4 df 45 3f 3f c9 f5 3e d2 ca 2f 3f 9f fa d2 3e
       0.77294374 0.480051 0.68668854 0.41206834
0000f0 c5 61 74 3f 93 c2 b8 3f 63 16 91 3f 50 b0 15 3f
       0.95461684 1.4434379 1.1334957 0.58472157
000100 c3 56 39 3f f1 02 9b 3e b7 ee cd 3e dd fa c7 3e
       0.7239801 0.30275682 0.40221187 0.3905858
000110 8a d2 f6 3e e8 26 f4 3f 5c 5c 32 3f d5 e0 57 3f
       0.48207504 1.9074373 0.6967218 0.8432744
000120 2f df 36 3f e5 21 0a 3f be e0 eb 3e ff 30 10 3f
       0.714343 0.5395797 0.46069902 0.5632476
000130 1f 10 ed 3e e5 ba 1d 3f 92 9b 63 3f 48 76 9f 3f
       0.46301362 0.61613303 0.88909256 1.2457972
000140 32 08 92 3f 18 d8 23 3f 02 47 f4 3e 1a ed 30 3f
       1.1408751 0.6400161 0.47710425 0.6911179
000150 3e 3f 54 3f 16 10 13 3f fb 25 21 3f 4e 53 1a 40
       0.82909 0.5744642 0.6294858 2.4113345
000160 18 16 07 3f 70 cd ea 3e 34 77 71 3f 55 c8 df 3e
       0.5276809 0.4585986 0.94322515 0.4370753
000170 0a 19 55 3f 9a 9b f4 3e 87 8f 41 3f ff 73 05 40
       0.8324133 0.47774965 0.7560963 2.0852048
000180 fa 1b a7 3f 64 4c 1a 3f 23 1c 92 3e 1f 44 e0 3e
       1.3055413 0.6027281 0.28537092 0.43801972
000190 65 60 94 3e d5 6e d1 3e 91 7c ef 3e 3a e9 13 3f
       0.28979793 0.4090487 0.46774724 0.5777775
0001a0 a2 cd 25 3f be b7 81 3f e9 98 62 3f 7b fb 71 3f
       0.64766896 1.0134199 0.8851457 0.94524354
0001b0 95 4b 4b 3f 0f e4 06 3f 91 1e 4d 3f c8 a4 35 3f
       0.79412204 0.5269174 0.80124766 0.7095456
0001c0 75 12 4d 3f 6b 24 e5 3e cd 32 ac 3f 38 74 21 3f
       0.8010629 0.44754347 1.3453003 0.6306796
0001d0 98 f3 85 3f a8 3b 1d 3f 78 48 a4 3f 47 46 04 3f
       1.0464964 0.61419153 1.2834616 0.51669735
0001e0 2b 9b 11 3f f4 64 25 3f 57 d5 c8 3e f3 05 54 3f
       0.5687739 0.6460717 0.39225265 0.8282158
0001f0 96 90 00 3f 6b 7c 6a 3f be 85 56 3f 99 64 d2 3e
       0.5022062 0.91596097 0.83797824 0.41092375
000200 67 c9 36 3f ec 49 22 3f 59 aa 00 3f 15 7b 95 3f
       0.71401066 0.63394046 0.5025993 1.1678187
000210 f4 42 53 3f d0 f0 fe 3e 56 71 21 3f 24 af fd 3e
       0.8252404 0.497931 0.6306356 0.49547684
000220 52 67 b4 3f ca 6c 29 3f 55 b6 26 3f 7b 11 f1 3e
       1.4094031 0.66181624 0.65121967 0.4708365
000230 00 77 2e 3f 93 d1 19 3f 1b 9a 07 3f aa 81 1c 3f
       0.6815033 0.6008541 0.5296952 0.6113535
000240 1e 35 a1 3f 4d 68 89 3f d3 76 04 3f f9 cb 3b 3f
       1.2594335 1.0734955 0.5174381 0.7335811
000250 95 2b e4 3f 4f a2 9b 3e 87 7b 3b 3f d4 ea 0f 3f
       1.78258 0.3039727 0.7323536 0.56217694
000260 ae 62 be 3e fa 0a a6 3e 11 21 97 3e 70 26 0f 3f
       0.37184662 0.3243025 0.29517415 0.55918026
000270 a5 ca f2 3e 60 a0 13 3f 52 ed a0 3e 8b c2 27 3f
       0.4742023 0.5766659 0.3143106 0.65531224
000280 ad f2 38 3f 7b b2 53 3f a9 7f 72 3f 3c a4 3c 3f
       0.72245294 0.82694215 0.94726044 0.736881
000290 d1 90 5d 3f 7b ba b3 3f ad 07 09 3f 92 95 24 3f
       0.865491 1.4041284 0.5352734 0.64290726
0002a0 11 85 0a 3f fc 0f 47 3f 95 63 01 3f f4 ef 23 3f
       0.54109293 0.77758765 0.50542575 0.64038014
0002b0 79 43 a3 3e 64 de d6 3e 6c e1 29 3f 91 e0 5f 3f
       0.31887415 0.41966546 0.6635959 0.87452036
0002c0 a9 9c 85 3f 95 c0 2a 3f 9f 78 37 3f 1b f3 a3 3e
       1.0438434 0.66700107 0.7166843 0.32021412
0002d0 48 b9 c3 3f c4 5c e2 3e e2 22 8d 3f 2a 9b de 3e
       1.5290918 0.442114 1.102627 0.43477756
0002e0 c1 06 3f 3f 31 b9 63 3f 51 7b a9 3e 37 9a 48 3f
       0.7461968 0.88954455 0.33101895 0.78360313
0002f0 7f a0 5f 3f 4d e8 14 3f e2 5b 5f 3f 1b 20 02 3f
       0.8735427 0.5816696 0.8724958 0.5083024
000300 eb f2 2d 3f 18 fb 1b 3f 79 d9 99 3e 6f b4 0b 3f
       0.6794879 0.60930014 0.3004873 0.54572195
000310 06 41 db 3f 0a 4d 05 3f fb fe 95 3f 35 e6 74 3f
       1.7129219 0.5207068 1.1718439 0.9566377
000320 f4 00 4d 3f 65 ea 47 3f bf 1e 0a 3f 6e 0a ae 3e
       0.8007958 0.7809203 0.53953165 0.33992332
000330 85 71 85 3f 4f 7f 3b 3f 3a 81 1d 3f f9 d0 2b 3f
       1.0425268 0.7324113 0.6152531 0.6711574
000340 94 bd ec 3e cf dd 0d 3f 3d e3 68 3f 9c 46 34 3f
       0.46238387 0.5541658 0.9097174 0.7042024
000350 d6 3a ee 3e 2e 80 72 3f 77 79 f6 3e 54 04 c4 3e
       0.46529263 0.94726837 0.48139545 0.38284552
000360 30 cf 23 3f ee 0d 6b 3f ab 04 2e 3f d1 4f f6 3e
       0.6398802 0.9181813 0.6797587 0.4810777
000370 f5 15 34 3f 42 f3 ef 3f 39 fa 9b 3f 47 0e 18 3f
       0.70346004 1.8746111 1.2185737 0.59396785
000380 a5 29 ab 3f 8a 20 14 3f 46 f9 50 3f ab d5 00 3f
       1.3372084 0.5786215 0.8163036 0.5032603
000390 0d f8 f5 3e 24 64 2b 3f 13 09 3a 3f b7 71 f6 3e
       0.4804081 0.6694968 0.72670096 0.48133633
0003a0 57 ff 33 3f 58 6d 1c 3f ea 93 12 3f be f8 8c 3f
       0.7031149 0.61104345 0.5725695 1.101341
0003b0 e5 71 30 3f 30 85 38 3f 67 5d d2 3e 25 91 2b 3f
       0.6892379 0.7207823 0.41086885 0.6701835
0003c0 2b a3 84 3f 73 97 b1 3e 23 96 50 3f fd b9 e3 3e
       1.0362295 0.3468586 0.8147909 0.44477835
0003d0 66 c8 1a 3f 1a a5 2b 3f 32 19 70 3f 93 f6 1b 3f
       0.60462034 0.670488 0.93788445 0.6092312
0003e0 1b db 44 3f c4 6a cc 3e e9 69 c6 3e 13 c8 10 3f
       0.7689683 0.39925206 0.38752678 0.5655529
0003f0 c3 f5 ed 3e 37 e0 a9 3f da 53 30 3f ee 08 85 3f
       0.46476564 1.327155 0.6887795 1.039335

net.4.weight f4 [128, 256]
000000 a9 2d 78 3c dc 55 3d bd 8a 04 73 3d 17 f4 88 bd
       0.015147605 -0.04622446 0.0593305 -0.066871814
000010 8b e5 a4 bc 57 08 7f 3d 09 7a d7 bc c5 15 8d bd
       -0.020128986 0.062263813 -0.026303308 -0.06888918
000020 9d 37 0d bd 02 46 cd bc 90 78 87 3c 12 78 6a 3c
       -0.034476865 -0.025057796 0.01653698 0.014310854
000030 82 ca d8 3c ec 4f c0 3c 78 00 bc 3b 62 0e 76 bb
       0.02646375 0.02347561 0.0057373606 -0.0037545194
000040 94 a7 54 bd ee a0 82 bc 00 8e c2 3c 5b f4 90 bb
       -0.051917627 -0.015945878 0.023749352 -0.0044236607
000050 1d c1 14 bc ce 61 32 3d c0 0a f1 bc a8 36 3e 3d
       -0.009079245 0.043550305 -0.029424071 0.046438843
000060 d4 7d 16 3d 80 2a 24 bb 95 3c 17 bd 41 e3 08 bd
       0.036741093 -0.0025049746 -0.03692301 -0.03341985
000070 34 5b c5 bc 90 24 ad 3b a4 e0 16 bd 27 8e 9f bc
       -0.02409134 0.0052838996 -0.036835328 -0.019476963
000080 8c d6 ca 3c 84 a0 de bc ce ab c9 3b ce ee 18 3d
       0.024760507 -0.02717615 0.006154514 0.037337117
000090 d8 08 7e bd 58 27 94 3d 66 89 ef 3a 87 0b 53 bc
       -0.062020153 0.07234067 0.0018275201 -0.012881166
0000a0 94 43 b4 bc 09 0f 88 bd 80 5d 62 3d e5 2f 15 bd
       -0.02200488 -0.06643493 0.05526495 -0.03642263
0000b0 22 7c 83 3d 9f ec 1e bd 5a e3 37 bd a3 d6 34 3d
       0.06420161 -0.03879988 -0.044894554 0.044150006
0000c0 af 4a 6b bd 69 7f 4c 3d 28 4b 0f bd d2 c1 84 3c
       -0.05744427 0.049926195 -0.034983784 0.016205702
0000d0 a8 e2 59 bd ac f2 88 bc 01 eb 23 bd 10 23 fe bc
       -0.053194672 -0.016717277 -0.04001904 -0.031022578
0000e0 50 3d 83 bd 62 98 93 3b 22 48 4a bd 81 0a 5c bc
       -0.06408179 0.0045042494 -0.049385197 -0.013430239
0000f0 44 be 62 3d 12 38 4d 3d b7 fe a3 3c 3a 7f 31 bd
       0.055357233 0.0501023 0.020018918 -0.043334223
000100 30 05 6d bd a8 04 03 bd a2 e5 0e bd f6 49 f3 3c
       -0.057866275 -0.031986862 -0.034886964 0.029698353
000110 83 79 17 3c ac 12 0a bd 32 fa 32 bd df 6e 93 bc
       0.009245279 -0.033709213 -0.043695636 -0.017997203
000120 46 14 7b 3d f4 6a 06 3d c2 f5 28 3c e5 58 62 bd
       0.06129863 0.032816842 0.0103124995 -0.055260558
000130 8e 37 f9 38 2c 8e 9d bc fb 2f 6d 3d 1f 04 c1 bd
       0.00011883593 -0.019232832 0.057907086 -0.09424614
000140 c6 3d 03 3c 29 a5 80 3c b2 43 5c bc 0c 2f c6 bc
       0.008010333 0.015703754 -0.013443874 -0.024192356
000150 c3 e9 90 bc 86 ed 6e 3c b3 88 37 3d d3 e0 dc bc
       -0.017689591 0.014582997 0.0448081 -0.026962673
000160 d6 4a ac bb 1e 42 1d bd aa 1e d5 3c 01 de 25 bd
       -0.0052579446 -0.038393132 0.026015598 -0.040494923
000170 32 1a 8e bc 6d 49 d3 3c 81 1a 64 3d 3b 4a 39 bb
       -0.017346475 0.025791848 0.05568934 -0.0028273005
000180 64 b3 26 3b b4 65 14 bd 8b 58 ac 3b d3 9b 04 bd
       0.0025436515 -0.036229804 0.0052595786 -0.032375168
000190 a5 4d 42 3a a2 69 2c 3d 1c 5f 60 bd 43 50 8b bb
       0.00074120826 0.042092927 -0.054778203 -0.0042515113
0001a0 41 5d c9 3c 77 6f 1b bc fc 9c ef bc 34 c5 d2 3c
       0.0245806 -0.0094870245 -0.02924966 0.0257288
0001b0 2e 7e a5 3c aa 50 66 bd 5f a7 f0 bc 7b 8b c7 3c
       0.020201769 -0.05622927 -0.029376684 0.024358502
0001c0 7e f2 e7 3c 23 3d fb 3b 00 3e 5b bd 5e 52 bc 3d
       0.028313871 0.0076672 -0.053525925 0.09195398
0001d0 34 4f ba 3c 47 ed 0a bd 2d d1 20 bd 08 0f 55 bd
       0.022742845 -0.03391769 -0.039261986 -0.052016288
0001e0 f9 5b 58 3c 0d 72 66 3d 02 79 ab bc 63 11 2e bd
       0.013205522 0.05626111 -0.020931724 -0.04249705
0001f0 54 d5 dd ba 17 6c 84 bd 20 b4 3d bd c5 ea 55 3c
       -0.0016924539 -0.06465929 -0.04631436 0.013056462
000200 a0 d0 81 3d 36 ba 01 bd 36 70 30 bd 63 d2 77 bd
       0.0633862 -0.031671725 -0.043075763 -0.060503375
000210 3f 02 21 bd 15 39 28 bd fb dd 11 3c 4f 7d 07 3d
       -0.039308783 -0.041070063 0.008903022 0.033078488
000220 13 13 9c 3a 72 2a 8b 3d ed 6c 24 bd 4f 5b ad bc
       0.001190754 0.06795205 -0.040142942 -0.021161703
000230 75 33 1d bd aa 7d 1e 3c 32 70 4a 3d 6b 64 be bc
       -0.03837915 0.009673515 0.049423404 -0.023241242
000240 b4 02 33 bc fb d5 78 3d a3 1d 13 bd 90 ac 1e bd
       -0.010925937 0.060750943 -0.035916936 -0.038738787
000250 c0 d2 cc bc 8a 9b c3 3c cf 3b 37 3d 33 3e 0b bd
       -0.025002837 0.023877878 0.044734772 -0.033994865
000260 e7 3e 56 bd b5 77 e3 bb 86 99 a2 bc 81 20 4f 3d
       -0.052306082 -0.0069417604 -0.019848596 0.050568108
000270 43 52 99 bd c6 5a ab 3b c6 fe 70 3d b8 8c 0d 3d
       -0.07486393 0.005229327 0.05883672 0.034558028
000280 4c 7b 9b 3c ab 01 5a 3b f8 67 0b bd d5 75 b9 bc
       0.018979691 0.0033265154 -0.0340347 -0.022639195
000290 9d 41 2d 3d 4e 85 d3 3c 99 af 75 bc 26 e1 6e bd
       0.0422989 0.0258204 -0.014995479 -0.058320187
0002a0 ca 7d e7 bc ed 14 88 3d ab 2a 1b 3d 65 ff 54 3c
       -0.028258223 0.06644616 0.03788249 0.013000344
0002b0 00 b3 8e 3d 6e 75 b5 3b 31 fb 12 3c 1c cc 60 bd
       0.06967735 0.0055376804 0.0089710215 -0.054882154
0002c0 fd 75 9d 3c ad d1 18 3d e4 f9 cc bc c1 4a 47 bc
       0.0192213 0.037309337 -0.0250215 -0.012163819
0002d0 f3 91 b9 3c 8c 79 92 3d ca b7 50 bd c4 82 37 3d
       0.022652602 0.071520895 -0.050956525 0.044802442
0002e0 ea df 04 bd ca 6a 5e bd 6d a0 17 bd b5 f4 39 bc
       -0.032440104 -0.05430106 -0.03701823 -0.011349847
0002f0 5a 2a 85 bc b4 07 4a 3d 0e 6a fa bc 10 dd 02 bd
       -0.016255546 0.049323753 -0.030568149 -0.031949103
000300 f1 d1 85 bc b4 56 25 bd 34 f9 38 3a 72 b7 27 3d
       -0.01633546 -0.04036589 0.0007056177 0.04094643
000310 65 03 f3 3b 32 ac 5e 3d 73 b5 20 3d 65 20 74 3d
       0.007416176 0.054363437 0.039235543 0.059601206
000320 c8 96 81 3c 0f 16 44 bc f5 fd 0a bd c2 ce 44 3d
       0.015818968 -0.01196815 -0.0339336 0.048048742
000330 17 7a 48 bb 87 34 30 bd b6 6a 9a bb d2 8e 33 3d
       -0.003059035 -0.043018844 -0.004712428 0.043837376
000340 3b 25 47 3d e7 6e 65 3d 4b e5 bd bc ca 1c af 3c
       0.04861949 0.056013968 -0.023180624 0.021376032
000350 46 7a d9 3c 60 d9 8d 3d 24 e0 ce 3c 8d 37 b0 bc
       0.026547562 0.069262266 0.025253363 -0.021510864
000360 8d fd 11 bd e5 5a ac 3c 92 66 92 3b 7a cd 58 bd
       -0.035642195 0.021039436 0.0044677937 -0.052930333
000370 c7 24 17 3d f9 d4 8e bc 25 0f 8d 3d ba 82 81 bd
       0.036900308 -0.017435538 0.06887654 -0.06323762
000380 0a 44 69 bd a3 73 82 bc 7d f6 f7 bc 21 f3 0c bd
       -0.056949653 -0.01592428 -0.030268902 -0.034411553
000390 48 eb d2 3b 8e 3c cb 3c b8 9b f4 3a 67 6b 02 3c
       0.006436739 0.024809148 0.001866213 0.007960177
0003a0 5a 2d a1 bc 23 46 e7 3c 38 0a 11 bd 8f 96 82 bc
       -0.019674946 0.028231686 -0.035410136 -0.015940933
0003b0 47 dd 46 bd 9d 55 e6 bb 7b 0e ed bc 01 93 55 bd
       -0.04855087 -0.007029249 -0.028937569 -0.052142147
0003c0 cd ea 26 3d cf 98 10 3d 71 79 83 39 f6 da e6 3c
       0.040751267 0.03530198 0.00025076748 0.02818058
0003d0 c6 94 1e 3d d7 96 1c bd ef 2d e8 3c 2b b1 1e 3d
       0.0387161 -0.03822979 0.028342215 0.03874318
0003e0 6c b3 cf 3c 6e 27 bd bc bc 61 0c 3c ae dd 8b 3d
       0.02535411 -0.02309009 0.008568224 0.068293914
0003f0 92 57 85 bd 51 ce f0 bc 70 1c 1d bd 7b cc 69 bd
       -0.06510843 -0.029395254 -0.0383572 -0.057079773
